checkpoint_2021-10-26T08 52 05.369710.pth (torch_old, 278775 bytes, 10 tensors)

fully_connected_layers.0.weight f4 [128, 37]
0	0xbcd585ec	-0.026064835
1	0xbf106867	-0.56409305
2	0x3ea119a1	0.31464866
3	0xbe9a2155	-0.30103555
4	0xbe572431	-0.210099
5	0xbdffa461	-0.12482525
6	0x3ceda1df	0.02900785
7	0x3e0f4ae6	0.13993415
8	0x3e2250c7	0.15851127
9	0x3e27c103	0.16382222
10	0xbe502c7d	-0.20329471
11	0xbcf981b6	-0.030457359
12	0xbd5e82b8	-0.054323882
13	0xbdaf0266	-0.08545379
14	0x3e6a5c93	0.22886877
15	0x3d23645c	0.039890632
16	0xbeea0090	-0.45703554
17	0x3dbcc0a8	0.09216434
18	0xbe26d9ac	-0.16293973
19	0xbe3cc01d	-0.1843266
20	0xbeba0c77	-0.36337635
21	0xbe750940	-0.2392931
22	0xbc6e4a74	-0.014544118
23	0x3e5ceb53	0.21574144
24	0x3e8d09b5	0.27546468
25	0x3e462ffe	0.19354245
26	0xbe203773	-0.15646152
27	0xbd35c4c4	-0.044377103
28	0xbed1b0de	-0.4095525
29	0xbe0af123	-0.13568549
30	0x3e977231	0.2957931
31	0xbef6e9ec	-0.48225343
32	0xbd40bfe2	-0.047057994
33	0xbda8342a	-0.082130745
34	0xbe819ddd	-0.25315753
35	0x3db6bba3	0.089225076
36	0xbdc9f863	-0.09861829
37	0x3d6ff8a2	0.058586724
38	0x3e00a7cf	0.12564014
39	0xbdab9424	-0.08377865
40	0x3d9ecf9c	0.07754442
41	0xbea5d50b	-0.323891
42	0x3e22fb02	0.15916064
43	0x3de30c35	0.11086313
44	0xbedf9ef9	-0.43675974
45	0xbe12e8bc	-0.14346594
46	0xbec218f0	-0.3790965
47	0xbe46f263	-0.194284
48	0xbd08861e	-0.03333103
49	0x3c5973ab	0.013272206
50	0x3e995244	0.29945576
51	0x3db6b623	0.089214586
52	0xbcd6bca1	-0.026212992
53	0x3d4a2f7d	0.049361695
54	0x3d520e74	0.051283315
55	0x3cde039d	0.027101332
56	0xbe015a76	-0.12632164
57	0x3e4a49c9	0.1975471
58	0xbe1e98af	-0.15487932
59	0xbe4e9b47	-0.20176421
60	0x3e953104	0.29138958
61	0xbf2ab75b	-0.6668603
62	0xbd84ee00	-0.064907074
63	0xbae3d8ec	-0.0017383373
64	0xbd999e07	-0.075008444
65	0x3ecaf97c	0.39643466
66	0xbed7252a	-0.4202054
67	0xbd73563f	-0.059408423
68	0xbea3e23a	-0.32008535
69	0xbe0355d5	-0.12825711
70	0x3eb0a5c3	0.34501466
71	0xbd7c52c8	-0.061602384
72	0xbe329eca	-0.17443386
73	0xbd151c65	-0.036404032
74	0x3e01a8c0	0.1266203
75	0xbd8b6289	-0.068059035
76	0xbef0d471	-0.4703708
77	0x3ee6c534	0.4507233
78	0xbeacfd18	-0.33786845
79	0xbe0a3d3f	-0.13499926
80	0xbd6f415a	-0.058411933
81	0xbeb913a8	-0.3614781
82	0x3e47931d	0.19489713
83	0xbf385645	-0.72006637
84	0x3d34089d	0.043953527
85	0xbe130401	-0.14356996
86	0x3e4404fc	0.19142526
87	0xbebd1e32	-0.369371
88	0x3d9594eb	0.073037945
89	0xbd30554e	-0.043050103
90	0xbe18fb4a	-0.14939609
91	0x3c300021	0.010742218
92	0x3d8a031e	0.06738876
93	0xbd001d50	-0.031277955
94	0x3da906d0	0.082532525
95	0xbe8e85ae	-0.27836365
96	0xbe3bbc0e	-0.18333456
97	0x3e2d8ad7	0.16947494
98	0xbe94a7a8	-0.29034162
99	0x3d2bf299	0.041979406
100	0xbd2a4af5	-0.04157539
101	0x3c8e6742	0.017383222
102	0xbd86e701	-0.06587029
103	0xbe2db8c9	-0.16965021
104	0xbdc32612	-0.09528746
105	0xbe05ab97	-0.13053738
106	0xbe1ee5ed	-0.15517397
107	0x3e8e4365	0.27785793
108	0x3c151a96	0.009100577
109	0x3d512845	0.051063795
110	0x3c6e6f1c	0.014552858
111	0xbef902e7	-0.48635027
112	0xbe2a60ad	-0.16638441
113	0x3e98cefa	0.2984541
114	0x3e91e359	0.28493765
115	0x3e857077	0.26062366
116	0x3d8c385c	0.06846687
117	0xbd9faa86	-0.07796197
118	0xbeb0b1cf	-0.34510657
119	0xbe8120ba	-0.2522028
120	0xbde133bd	-0.109961964
121	0xbe0b476e	-0.13601467
122	0x3d3a51ad	0.04548805
123	0x3c15e918	0.009149812
124	0xbe6c4ec8	-0.23076928
125	0x3e55de91	0.20885684
126	0xbca3a209	-0.019974725
127	0xbe08d388	-0.13361943
128	0xbe90bed4	-0.2827059
129	0x3ec66f2c	0.38756692
130	0xbe13c315	-0.14429887
131	0xbeba77c3	-0.36419496
132	0x3e79e29f	0.24402855
133	0x3b63e4ac	0.003477375
134	0xbe01c915	-0.12674363
135	0xbe6d0a42	-0.23148444
136	0xbd8f93b4	-0.07010594
137	0xbe3fd150	-0.1873219
138	0x3cc8f3c8	0.024530306
139	0x3e74c52e	0.23903343
140	0x3dd8770c	0.105695814
141	0x3d6c86dc	0.0577458
142	0xbe6d3272	-0.23163775
143	0xbce16a24	-0.027516432
144	0xbee250ab	-0.4420217
145	0xbe028240	-0.12744999
146	0xbddbba90	-0.10728943
147	0xbcf0779a	-0.029353905
148	0xbe3145ef	-0.17311834
149	0xbd92ae62	-0.07162167
150	0x3e306ecc	0.17229766
151	0xbe378dd0	-0.17925191
152	0x3f1423f0	0.57867336
153	0xbe670e01	-0.22563936
154	0x3db25ad0	0.08708727
155	0xbdf803af	-0.121100776
156	0x3d417a1f	0.047235604
157	0x3e8bb963	0.27289876
158	0xbe9dfeac	-0.30858362
159	0x3c6e686b	0.014551262
160	0x3d2b02ff	0.041750904
161	0x3d1289d7	0.035775986
162	0xbbf13e67	-0.0073621753
163	0x3e6fddc6	0.23424444
164	0xbe22a5a9	-0.15883507
165	0x3e363797	0.17794643
166	0xbe39a2f1	-0.18128563
167	0x3df428f9	0.119218774
168	0xbd963de8	-0.073360264
169	0x3dd68f8d	0.10476599
170	0x3c7f2b20	0.015574247
171	0xbd9650e6	-0.07339649
172	0x3eedb6b1	0.46428445
173	0xbdeaeb68	-0.114706814
174	0xbd6472de	-0.05577361
175	0xbe77955f	-0.24178074
176	0xbe2d8bd9	-0.16947879
177	0xbeee64c2	-0.46561247
178	0xbd98d355	-0.074621834
179	0xbdca3971	-0.09874237
180	0x3d95dc96	0.07317464
181	0x3e0c5a50	0.13706326
182	0xbe440f35	-0.19146426
183	0xbd1f1931	-0.038842384
184	0xbb2a9b7a	-0.0026032613
185	0xbe2a3c74	-0.16624624
186	0xbe36b816	-0.1784366
187	0xbc9f673d	-0.019458408
188	0x3e7937d6	0.24337706
189	0xbdf6926d	-0.12039647
190	0xbea23ab2	-0.31685406
191	0x3dcea775	0.10090534
192	0xbe766576	-0.24062142
193	0x3eb0baa5	0.34517398
194	0x3d872203	0.06598284
195	0xbd016b0b	-0.031596225
196	0x3cf65401	0.030069353
197	0xbe79bee4	-0.24389225
198	0x3e29834f	0.16553997
199	0x3e5fb8d1	0.21847846
200	0x3e8f3873	0.27972755
201	0xbdaf9faa	-0.085753754
202	0xbe14f9c7	-0.14548407
203	0x3b1578da	0.002280763
204	0xbf013209	-0.5046697
205	0x3e73080e	0.23733541
206	0x3ddaed03	0.10689738
207	0x3d6bf0f5	0.05760284
208	0x3d270225	0.04077353
209	0x3f24609b	0.6420991
210	0xbe9cf79b	-0.30657658
211	0x3e336a15	0.17520936
212	0x3ded9d52	0.11602272
213	0xbe24b719	-0.16085471
214	0x3e77f929	0.24216141
215	0xbdba8f93	-0.09109416
216	0x3dd088cb	0.10182341
217	0x3e091218	0.13385808
218	0xbd474f1a	-0.04865942
219	0x3b62d2c6	0.0034610494
220	0xbd701d49	-0.05862168
221	0xbc20523b	-0.00978523
222	0x3c8c4ff1	0.017127963
223	0x3cc30aaa	0.023808796
224	0x3de3d5d3	0.11124768
225	0x3d903447	0.07041221
226	0x3df1b880	0.11802769
227	0x3d74a212	0.059724875
228	0x3de6ea74	0.11275187
229	0x3e1489be	0.1450567
230	0x3e669fc0	0.22521877
231	0xbce20e9a	-0.027594853
232	0xbd4524eb	-0.04813091
233	0x3d4b48a5	0.049629826
234	0x3cf761f5	0.030198077
235	0x3e0afa85	0.13572128
236	0xbdd086ab	-0.10181936
237	0xbc9490f0	-0.018135518
238	0xbcc67e3d	-0.024230117
239	0x3bcfda3b	0.006343154
240	0x3df15cb0	0.11785257
241	0x3e390e7f	0.18071936
242	0x3db4ae30	0.08822286
243	0xbcaddca6	-0.021223377
244	0xbdfefdff	-0.1245079
245	0x3df0bcbc	0.11754748
246	0x3dbdabd1	0.09261287
247	0x3e99bca2	0.30026728
248	0xbf3c6bc1	-0.7360192
249	0xbea68686	-0.32524508
250	0xbf6fb2a6	-0.9363197
251	0xc00fa583	-2.244477
252	0xbd7f3930	-0.062310398
253	0xbd35db84	-0.0443988
254	0xbd43176e	-0.047629766
255	0xbe091263	-0.1338592

fully_connected_layers.0.bias f4 [128]
0	0x3d6260e0	0.05526817
1	0xbdbd69ef	-0.09248721
2	0xbd054e3f	-0.032545324
3	0x3c035cf1	0.008017764
4	0x3db546fd	0.088514306
5	0xbe897ad6	-0.2685153
6	0x3e350ce2	0.17680696
7	0x3e03a812	0.12857082
8	0xbdfc66ae	-0.12324272
9	0xbc42c82e	-0.011888547
10	0x3d9e05b9	0.07715935
11	0xbc2608a2	-0.010133894
12	0xbc501406	-0.012700086
13	0x3d9b3a04	0.07579425
14	0xbdb705e0	-0.089366674
15	0x3e23b7aa	0.15988031
16	0xbd55a2ce	-0.052157216
17	0x3dd01d94	0.101618916
18	0xbcbc646a	-0.0229971
19	0x3ca163d9	0.019700931
20	0x3e0c3362	0.13691476
21	0xbe34b55d	-0.1764731
22	0xbe025799	-0.12728728
23	0xbe8830e4	-0.265998
24	0x3e38b5c8	0.18038094
25	0xbd26c657	-0.040716495
26	0xbd9c4d74	-0.076319605
27	0xbe07250d	-0.13197728
28	0x3cc06389	0.023484962
29	0x3db0a879	0.086258836
30	0xbddf1260	-0.10892177
31	0xbde16182	-0.11004926
32	0x3d383324	0.044970647
33	0x3d741104	0.05958654
34	0xbe1ac2be	-0.15113351
35	0x3e05fdf0	0.1308515
36	0xbe008450	-0.12550473
37	0x3d374404	0.0447426
38	0xbd5fe92e	-0.054665737
39	0xbd0e4d5b	-0.03474174
40	0xbdf67f0c	-0.12035951
41	0x3d616e2b	0.055036705
42	0x3dc752e1	0.09732605
43	0xbdc1b512	-0.094583645
44	0x3c4863e7	0.01223085
45	0x3cb748b8	0.022373542
46	0xbdb367ba	-0.08760019
47	0xbdf25385	-0.11832336
48	0xbcccaef9	-0.024985777
49	0xbdb7c874	-0.0897378
50	0x3ddda75d	0.10822938
51	0xbdb01859	-0.08598394
52	0xbdc546bb	-0.096326314
53	0xbe15d75b	-0.14632933
54	0x3e10f261	0.1415496
55	0xbbb0a19d	-0.0053903596
56	0x3e3b04f7	0.18263613
57	0xbde1c1fd	-0.110233285
58	0x3dd06628	0.10175735
59	0x3c829542	0.015940312
60	0xbe15a3e0	-0.14613295
61	0x3d476e9b	0.048689466
62	0xbdf9d30c	-0.12198457
63	0xbdf60529	-0.12012703
64	0xbe940b72	-0.28914982
65	0x3d02455e	0.031804435
66	0x3e3c4069	0.18383946
67	0xbd325351	-0.043536488
68	0x3ddeb149	0.10873658
69	0xbe388511	-0.18019511
70	0x3d9043ab	0.07044157
71	0xbdfd6c93	-0.123742245
72	0x3e032b5e	0.12809512
73	0xbdbac8a0	-0.091202974
74	0xbe3c83ac	-0.18409604
75	0x3dabd38e	0.0838996
76	0xbe21423c	-0.15747923
77	0xbdf9d62d	-0.12199054
78	0x3e1e25fa	0.15444174
79	0x3c92da8a	0.017926473
80	0x3b17968a	0.00231305
81	0x3d19be08	0.037534744
82	0xbe08dac5	-0.13364704
83	0x3ddbeb3f	0.10738229
84	0x3e04d854	0.12973148
85	0xbe0bdf15	-0.13659318
86	0xbdb92f64	-0.09042242
87	0xbe10710b	-0.14105622
88	0xbe0bafa1	-0.13641216
89	0xbe2f6691	-0.1712897
90	0x3d475540	0.048665285
91	0x3c99eb9c	0.018789105
92	0xbd109391	-0.03529698
93	0xbe09250b	-0.13393037
94	0xbce1c99b	-0.027561953
95	0xbdba21ed	-0.09088502
96	0xbd0ca1a4	-0.03433384
97	0xbe4c0667	-0.19924317
98	0xbd2714ee	-0.040791444
99	0xbcbc9993	-0.023022449
100	0x3da30736	0.0796036
101	0xbe7e16e2	-0.24813417
102	0xbcd77de2	-0.026305143
103	0x3dd45f81	0.103697784
104	0xbe206156	-0.1566213
105	0xbd940218	-0.07226962
106	0x3b32172f	0.0027174463
107	0xbdd1705d	-0.1022651
108	0x3da670e2	0.081269994
109	0x3de84f80	0.113432884
110	0x3dc31a53	0.09526505
111	0xbdb761f3	-0.08954229
112	0x3df90a02	0.12160112
113	0xbe1ea8a9	-0.15494026
114	0xbdd82b04	-0.105550796
115	0xbdd9b418	-0.10630053
116	0xbdfbe8eb	-0.12300285
117	0xbe161c9b	-0.1465935
118	0x3e17f245	0.14838512
119	0xbe0635a3	-0.13106398
120	0xbe2fc3db	-0.17164557
121	0xbc192578	-0.009347312
122	0xbd7cce38	-0.061720103
123	0xbe2ef3a1	-0.17085125
124	0x3be3d618	0.006953012
125	0x3e37f66c	0.17965096
126	0xbd80524e	-0.062656984
127	0xbe07b3e5	-0.13252218

fully_connected_layers.1.weight f4 [128, 165]
0	0xbe455d34	-0.19273835
1	0xbe5c99e5	-0.21543081
2	0x3e14188e	0.14462492
3	0x3d0d7c70	0.0345425
4	0xbf17e69a	-0.59336245
5	0xbda9aa71	-0.08284462
6	0xbd074289	-0.033022437
7	0x3d992eaf	0.07479607
8	0xbe17e5b2	-0.14833716
9	0xbeb1ba27	-0.34712335
10	0x3e0f5585	0.13997467
11	0xbd63300d	-0.055465747
12	0xbe8e14c7	-0.27750227
13	0x3c115cbd	0.008872208
14	0x3d87396d	0.0660275
15	0xbd37bf62	-0.04486025
16	0xbef428df	-0.47687432
17	0x3ea3e77d	0.3201255
18	0xbf225f8e	-0.63427055
19	0xbf116f4e	-0.5681046
20	0xbc9da23c	-0.019242398
21	0xbed16f93	-0.40905437
22	0xbd632270	-0.055452764
23	0xbe3daad5	-0.18522198
24	0x3d84b5eb	0.064800106
25	0x3d94ab17	0.07259195
26	0xbe0daefe	-0.13836285
27	0xbeaf0e31	-0.34190515
28	0x3b229049	0.002480524
29	0xbf2a0b1a	-0.6642319
30	0xbd8aafd0	-0.06771815
31	0xbef27646	-0.4735586
32	0x3e3d5d30	0.1849258
33	0xbebc5ec9	-0.36791065
34	0xbdf17bc4	-0.117911845
35	0xbc3ab81d	-0.011396435
36	0xbd8ff891	-0.07029832
37	0x3b9f0170	0.0048524663
38	0x3e6ced8c	0.23137492
39	0xbe039e28	-0.128533
40	0xbe480f5f	-0.19537114
41	0xbeb55b3a	-0.35421163
42	0x3e2b30ff	0.1671791
43	0xbcb10e69	-0.021613317
44	0x3e33758e	0.17525312
45	0xbe2fc289	-0.17164053
46	0xbe812990	-0.25227022
47	0x3ea6135e	0.3243665
48	0x3cfd268f	0.030902175
49	0xbe08cea9	-0.13360085
50	0xbe4ff940	-0.20309925
51	0x3d151b38	0.03640291
52	0x3e29f399	0.16596831
53	0xbe9fcc56	-0.31210583
54	0x3e5a689d	0.2132897
55	0x3e1ecdf9	0.1550826
56	0xbe058c9e	-0.13041922
57	0xbe3c2726	-0.18374309
58	0xbe3e9ef8	-0.1861533
59	0xbf021de4	-0.5082686
60	0x3e4c4976	0.19949898
61	0x3e732260	0.23743582
62	0xbe9291f6	-0.28626984
63	0xbea0c106	-0.31397265
64	0xbd2c0482	-0.041996486
65	0xbe89462c	-0.2681135
66	0x3ca23f4b	0.019805571
67	0xbf15435d	-0.58305913
68	0x3b27f977	0.002563087
69	0x3eb90066	0.36133116
70	0xbde9f4a0	-0.11423612
71	0x3e0a55b9	0.13509263
72	0xbe9d787f	-0.30755994
73	0xbda2532a	-0.079260185
74	0xbdbda6d6	-0.09260337
75	0x3d6da770	0.05802101
76	0xbe62871b	-0.22121851
77	0x3efc69c4	0.49299443
78	0x3c3a6da6	0.011378681
79	0x3e2ec4ca	0.17067257
80	0xbd4ddb1a	-0.05025778
81	0x3e165c6f	0.14683698
82	0x3e84fda3	0.2597476
83	0xbe772863	-0.241365
84	0xbe18d092	-0.14923313
85	0x3dde9eb1	0.10870112
86	0xbe31bee3	-0.17357974
87	0x3dd62008	0.10455328
88	0xbe5ceb1b	-0.2157406
89	0xbe173413	-0.14765958
90	0xbe10f552	-0.14156082
91	0xbe8d0f2a	-0.27550632
92	0x3e36c50d	0.17848606
93	0x3daa04c2	0.08301689
94	0xbe3673f3	-0.17817669
95	0x3e44a33e	0.19202897
96	0xbd7445f6	-0.059637032
97	0xbe2dfe6e	-0.16991588
98	0xbe4dc77b	-0.20095627
99	0xbe766aab	-0.24064128
100	0x3d6dfd40	0.058102846
101	0x3d4a8d6e	0.049451284
102	0xbe87414b	-0.26417002
103	0xbe6e8a1f	-0.23294877
104	0xbec4ce7c	-0.38438785
105	0xbc72d0f6	-0.014820328
106	0xbf09852d	-0.53718835
107	0xbcdf1dc7	-0.027235879
108	0xbc263121	-0.010143549
109	0xbe90fcbe	-0.28317827
110	0x3e661797	0.22469936
111	0x3e37fa43	0.17966561
112	0x3dcebc02	0.100944534
113	0xbeadfa0d	-0.33979836
114	0x3df388c5	0.11891321
115	0x3d2cd6b8	0.04219696
116	0xbe155bd5	-0.14585812
117	0xbd69238b	-0.056918662
118	0x3d9d8cf6	0.07692902
119	0xbd8cd71b	-0.068769656
120	0x3e673bcf	0.22581409
121	0xbe559d8c	-0.2086088
122	0x3e1d108b	0.15338342
123	0x3d09211d	0.033478845
124	0xbe263a4f	-0.1623318
125	0xbcc4e873	-0.024036622
126	0xbdfc4d66	-0.1231945
127	0xbe871593	-0.26383647
128	0xbe25b16d	-0.16180964
129	0x3ea5e348	0.32399964
130	0x3d69f10c	0.057114646
131	0xbe8c201a	-0.27368242
132	0xbe978c0b	-0.29599032
133	0xbcabd07e	-0.02097344
134	0xbdab0117	-0.08349817
135	0xbea6c0a8	-0.3256886
136	0x3bda9319	0.0066703674
137	0xbd1b7f40	-0.037963152
138	0xbe877cc8	-0.26462388
139	0xbea30dfc	-0.31846607
140	0xbcf68012	-0.030090366
141	0xbe6ff9fa	-0.23435202
142	0x3e947d02	0.29001623
143	0xbe072779	-0.13198651
144	0xbe78aa5b	-0.24283735
145	0xbe6441ec	-0.22290772
146	0xbe868959	-0.26276663
147	0xbd74c05d	-0.059753764
148	0xbd67b112	-0.05656535
149	0x3e800e13	0.25010738
150	0xbe8a6888	-0.27032876
151	0x3c80c4c8	0.015718833
152	0xbf0a4d72	-0.5402442
153	0x3de46859	0.11152715
154	0x3d709144	0.058732286
155	0xbe40a79f	-0.18813942
156	0xbd7341a1	-0.05938876
157	0x3caf34f3	0.021387553
158	0xbe92fb85	-0.2870752
159	0x3e7140d3	0.23559885
160	0x3e95042b	0.29104742
161	0x3e2f948c	0.1714651
162	0x3d1f4eb0	0.0388934
163	0xbc237d2c	-0.009978574
164	0xbddb83d0	-0.107185006
165	0x3d71bb39	0.05901644
166	0xbeaf14b0	-0.3419547
167	0xbd7323c9	-0.0593603
168	0xbe0c4fdb	-0.13702337
169	0xbee401b3	-0.44532546
170	0x3c0ab4a0	0.008465916
171	0xbc4ebd2d	-0.012618345
172	0x3c3123c7	0.010811753
173	0xbeb68f8f	-0.35656402
174	0xbee27778	-0.44231772
175	0x3e0c9d6e	0.1373193
176	0x3d4d4154	0.05011113
177	0xbed576ed	-0.41692296
178	0xbeba9f79	-0.36449793
179	0x3dc4ac4e	0.09603177
180	0x3d8df160	0.06930804
181	0xbe5155a2	-0.20442823
182	0xbd5e69c8	-0.0543001
183	0xbe8f62fd	-0.2800521
184	0xbef71aed	-0.4826273
185	0xbe91344b	-0.2836021
186	0x3c2c35f0	0.010510907
187	0x3d921baa	0.07134183
188	0xbe59d93a	-0.21274272
189	0x3d6439e9	0.05571929
190	0xbccad774	-0.02476094
191	0x3e1eb037	0.15496908
192	0x3bac696a	0.00526159
193	0xbea7e614	-0.32792723
194	0xbdcf951c	-0.10135862
195	0x3e1a75fa	0.15084067
196	0xbd956ae5	-0.07295779
197	0xbed93b21	-0.42427924
198	0xbeae10f8	-0.3399732
199	0x3e84c3d9	0.2593067
200	0xbe623f20	-0.22094393
201	0xb9bdd64b	-0.0003620855
202	0xbdc2810f	-0.09497272
203	0xbd0b0ae6	-0.03394594
204	0x3e26bcfe	0.16283032
205	0x3e191f48	0.14953339
206	0xbb5855b4	-0.0033010067
207	0x3e28a985	0.16470917
208	0xbcdb60e2	-0.026779596
209	0x3d7cc184	0.06170799
210	0x3e8278bb	0.25482735
211	0x3d59f5ab	0.053212803
212	0xbd3a6a01	-0.04551125
213	0x3d496946	0.049172662
214	0xbd802728	-0.062574685
215	0xbe064ba6	-0.13114795
216	0x3e4e0022	0.20117238
217	0x3e5a4e29	0.21318878
218	0xbce08f1a	-0.027411986
219	0x3dbd57f1	0.09245289
220	0xbe8928e2	-0.26789004
221	0xbe446656	-0.19179663
222	0xbe80afc6	-0.25134104
223	0xbe2c8f4e	-0.16851541
224	0xbd35090b	-0.044198077
225	0xbe9ec996	-0.31013173
226	0x3c240d2c	0.010012906
227	0x3e989a75	0.2980534
228	0xbd1faabb	-0.03898118
229	0x3c85f49e	0.016351994
230	0xbdba508f	-0.090973966
231	0xbedd86df	-0.4326696
232	0xbb32dd88	-0.0027292687
233	0xbdf326d6	-0.11872642
234	0x3e34d0e3	0.17657809
235	0xbf07c508	-0.5303502
236	0xbd58bc09	-0.0529137
237	0x3c7f2f00	0.0155751705
238	0xbd79498a	-0.060861148
239	0xbe0ad023	-0.1355596
240	0xbdb49ca8	-0.08818942
241	0xbd8d6952	-0.06904854
242	0xbd49c331	-0.049258415
243	0x3e5c9c79	0.21544065
244	0xbe7da51c	-0.24770015
245	0x3db1a290	0.086735845
246	0xbd536aa9	-0.05161539
247	0xbc568b10	-0.0130946785
248	0xbd895c0c	-0.0670701
249	0xbe16d02f	-0.14727853
250	0xbd55064d	-0.052007962
251	0xbca0d210	-0.019631416
252	0x3d8effdf	0.06982397
253	0xbe6ba802	-0.23013309
254	0x3dcaeefd	0.09908865
255	0x3e168504	0.14699179

fully_connected_layers.1.bias f4 [128]
0	0xbaa41095	-0.0012517149
1	0xbe0733b7	-0.13203321
2	0xbd6917b5	-0.056907374
3	0xbdacf44e	-0.08445035
4	0xbdaa409d	-0.08313105
5	0x3d3e26d5	0.04642375
6	0x3e06f816	0.13180575
7	0xbd9ed0ab	-0.07754644
8	0xbdabb393	-0.083838604
9	0x3d30e1d3	0.043184113
10	0xbd607e2a	-0.05480782
11	0xba5b934b	-0.00083761354
12	0xbe1308de	-0.14358851
13	0xbda87b61	-0.08226658
14	0xbdc5b7d7	-0.09654205
15	0xbdd79ffb	-0.10528561
16	0x3da02df5	0.078212656
17	0x3dd7fd44	0.105463535
18	0xbdad0484	-0.08448127
19	0xbd8c30bd	-0.068452336
20	0x3c6c2843	0.014413896
21	0xbd646857	-0.05576357
22	0xbd2f30e7	-0.042771246
23	0x3cb0867d	0.021548504
24	0x3a693ef5	0.0008897626
25	0xbcd3408e	-0.025787618
26	0xbd8f200a	-0.06988533
27	0x3d2d87ed	0.042365957
28	0x3da04668	0.07825929
29	0xbd387bd5	-0.04503997
30	0x3c88148c	0.01661136
31	0xbc9671d1	-0.018364819
32	0x3dbfecad	0.09371314
33	0xbc673364	-0.014111374
34	0xbd90c0a5	-0.07067994
35	0xbd57b16f	-0.05265945
36	0xbc957b5a	-0.018247295
37	0xbc9fbfb5	-0.019500593
38	0x3b343c6c	0.0027501835
39	0xbda8037d	-0.0820379
40	0x3d29a84b	0.041420262
41	0xbd356c32	-0.044292636
42	0xbb177fe4	-0.0023117
43	0x3ddf3837	0.10899394
44	0xbb8d2ac7	-0.004308078
45	0x3d55831c	0.05212699
46	0xbddd4610	-0.10804379
47	0xbd0d46e9	-0.034491453
48	0xbc7ea323	-0.0155418245
49	0xba9ab130	-0.0011802074
50	0xbcc5dbf7	-0.024152739
51	0xbdcd42e3	-0.10022523
52	0x3d8b52f0	0.068029284
53	0xbc00185a	-0.007818306
54	0x3df181dd	0.117923476
55	0xbbaccbae	-0.005273304
56	0xbd9e3593	-0.07725062
57	0x3cbd230a	0.023087997
58	0xbde57e7f	-0.11205768
59	0xbcfe5485	-0.031046161
60	0x3ce9e8ca	0.028553385
61	0x3d4c4a52	0.049875565
62	0x3d88e711	0.066846974
63	0xbcd8442c	-0.026399694
64	0xbd823a5b	-0.06358787
65	0x3c8a9fd6	0.016921919
66	0xbd910c67	-0.07082444
67	0xbd201a05	-0.039087314
68	0xbcb12b0e	-0.021626975
69	0x3d495647	0.049154546
70	0xbd10ffd3	-0.035400223
71	0x3dcb2f17	0.09921091
72	0x3d023c63	0.03179587
73	0x3dc37fb0	0.09545839
74	0xbda58fc5	-0.080840625
75	0x3d7dd6b7	0.061972346
76	0x3d864ed9	0.06558008
77	0xbcbcf559	-0.02306621
78	0xbdbda39a	-0.0925972
79	0x3d75d2ac	0.060015365
80	0xbb6b0a27	-0.0035864206
81	0xbd05a500	-0.03262806
82	0x3c0b6919	0.008508944
83	0x3dd640e1	0.104615934
84	0x3da5da77	0.080983095
85	0x3c357569	0.011075356
86	0x3dbc9b07	0.092092566
87	0x3d8a1b2b	0.06743463
88	0xbe03f601	-0.12886812
89	0x3d57ecc3	0.052716028
90	0xbd6514b6	-0.055927955
91	0x3d8e66e4	0.069532186
92	0x3ca55a0e	0.020184543
93	0x3da58b74	0.08083239
94	0xbdcebea9	-0.10094959
95	0x3af77b57	0.0018881363
96	0x3d353e99	0.04424915
97	0xbdcd7394	-0.100318104
98	0xbdb103ac	-0.086432785
99	0xbde785e1	-0.11304832
100	0x3d0fafaa	0.035079636
101	0xbbfbf8b5	-0.0076895603
102	0x3d193c9d	0.03741132
103	0x3dc4b4e0	0.09604812
104	0xbd0caa7a	-0.034342267
105	0x3d88c32a	0.066778496
106	0x3d4d659a	0.050145723
107	0x3d032908	0.032021552
108	0x3d029cbd	0.03188776
109	0xbc604e16	-0.013690492
110	0x3ce77fc7	0.028259171
111	0xbbe5189a	-0.006991458
112	0xbe015953	-0.1263173
113	0x3b7df61c	0.003875143
114	0xbb858dfb	-0.0040757633
115	0x3d1b0f59	0.037856434
116	0xbdf57b3c	-0.11986396
117	0x3c873a0f	0.016507177
118	0xbd118d81	-0.03553534
119	0x3de7dd8e	0.11321555
120	0x3cbba18b	0.022904178
121	0xbca80618	-0.020510718
122	0xba843a7f	-0.0010088234
123	0x3d5ec5bd	0.054387797
124	0xbd640600	-0.055669785
125	0x3cd7009a	0.026245404
126	0x3d0585b8	0.032598227
127	0x3d891285	0.066929854

fully_connected_layers.2.weight f4 [128, 165]
0	0x3d3d35d2	0.046193905
1	0x3e64acc7	0.22331534
2	0x3e05cc25	0.13066156
3	0xbd34410d	-0.04400735
4	0x3e019cc9	0.12657465
5	0x3df69775	0.12040607
6	0x3e0e8018	0.13916051
7	0xbd397f17	-0.045287218
8	0x3d2489ae	0.040170364
9	0xbda9d742	-0.0829301
10	0x3befabb7	0.007314171
11	0xbe05e06d	-0.13073893
12	0x3def6f54	0.11691156
13	0x3e19d980	0.15024376
14	0x3db17535	0.086649336
15	0x3ddc7650	0.10764754
16	0xbbce9735	-0.0063046464
17	0x3e0d9bd6	0.13828978
18	0x3d31d3ab	0.043414753
19	0xbd0d028e	-0.034426264
20	0x3e52e501	0.2059517
21	0xbd8d8dd9	-0.06911821
22	0x3b264a67	0.0025373937
23	0xbe23c3bd	-0.15992637
24	0xbf054d29	-0.5207086
25	0x3e8eb7c4	0.27874577
26	0xbc532dff	-0.012889384
27	0xbe5b3a97	-0.21409069
28	0xbe218d1a	-0.15776482
29	0xbf843baa	-1.0330708
30	0x3d88376e	0.066511974
31	0x3d7653fe	0.060138695
32	0x3e19a0ce	0.15002748
33	0xbe24c10d	-0.16089268
34	0xbdc77762	-0.09739567
35	0x3d6c53d1	0.05769712
36	0xbc92aefa	-0.017905701
37	0xbd960436	-0.07325022
38	0xbde5b6c2	-0.11216499
39	0xbb33fdb0	-0.0027464442
40	0x3c78c224	0.0151830055
41	0xbe06a48d	-0.13148709
42	0xbcb16f95	-0.021659652
43	0x3d62c809	0.05536655
44	0x3ca80e73	0.020514702
45	0xbd155810	-0.036460936
46	0x3d1e085d	0.038582195
47	0xbdce0e91	-0.10061372
48	0xbd1bc041	-0.038025144
49	0xbe19abdd	-0.15006967
50	0xbe921ea7	-0.2853901
51	0x3df3212c	0.118715614
52	0x3d746b34	0.05967255
53	0x3dbea634	0.093090445
54	0x3e88b609	0.26701382
55	0xbe1a6bef	-0.15080236
56	0xbd93013d	-0.071779706
57	0x3e0d2673	0.13784198
58	0xbbbca56d	-0.005757025
59	0xbcd0e802	-0.025501255
60	0xbdf205ee	-0.11817537
61	0xbd93af74	-0.072111994
62	0xbe041e41	-0.12902166
63	0x3c7d3689	0.015454897
64	0xbd1d616c	-0.038422987
65	0xbb5bf1fd	-0.0033560984
66	0x3e27064f	0.16311
67	0xbde548ac	-0.11195502
68	0xbd24b42e	-0.040210895
69	0x3cc45370	0.023965567
70	0xbbd74c9d	-0.0065704123
71	0x3aec004a	0.0018005457
72	0xbe683fdf	-0.22680615
73	0xbe63f686	-0.2226201
74	0xbdc5006e	-0.096192226
75	0x3d942bd9	0.07234926
76	0xbd957017	-0.0729677
77	0xbbb4b6fd	-0.005514978
78	0x3dc03b71	0.093863375
79	0x3d8d4be9	0.06899244
80	0x3e03f964	0.12888104
81	0xbb9c9756	-0.004778783
82	0xbde30527	-0.11084967
83	0xbb9dcfa0	-0.0048160106
84	0x3e1bfe5e	0.15233752
85	0x3d022a7f	0.03177881
86	0x3db1ed4f	0.08687841
87	0x3d86cd7f	0.06582164
88	0xbc45c659	-0.012071216
89	0x3d91377a	0.070906594
90	0xbe315fdc	-0.17321724
91	0xbe0c759f	-0.13716744
92	0xbea3a99c	-0.3196534
93	0x3e21e321	0.15809299
94	0x3dcf42ee	0.10120188
95	0x3d1922e6	0.037386797
96	0xbe1158e7	-0.1419407
97	0xbc966a32	-0.018361185
98	0x3f19ef41	0.601307
99	0x3d935bc0	0.07195234
100	0xbd34bb74	-0.04412408
101	0x3cdbcd50	0.026831299
102	0x3e18f667	0.14937745
103	0xbe20f7ac	-0.1571948
104	0xbb976ec8	-0.0046213605
105	0xbe157351	-0.14594771
106	0xbe3d6b31	-0.18497922
107	0x3d4c5192	0.04988248
108	0x3dd6c233	0.10486259
109	0x3d899415	0.067176975
110	0x3da1a21b	0.07892247
111	0x3dae1cb3	0.08501568
112	0x3dcd6d6f	0.100306384
113	0xbdc86120	-0.0978415
114	0x3d0ff515	0.035145838
115	0x3dacbfc1	0.08435012
116	0x3e16880e	0.14700338
117	0xbe14679d	-0.1449265
118	0x3ae5c11f	0.0017528868
119	0x3df8ea70	0.121540904
120	0x3e0031f2	0.12519053
121	0xbd34a769	-0.044104967
122	0xbd568013	-0.052368235
123	0xbcd1713a	-0.025566686
124	0xbdb8953f	-0.090128414
125	0x3da29d7c	0.07940194
126	0xbe6b4a27	-0.22977506
127	0xbd9f6a3a	-0.07783933
128	0xbd8b7552	-0.068094864
129	0x3cfd644b	0.030931612
130	0xbc14d9f0	-0.0090851635
131	0xbdf8d51c	-0.121500224
132	0xbcc0417f	-0.023468731
133	0xbeb408eb	-0.35163054
134	0x3d000b68	0.031260878
135	0xbe7c7a29	-0.24655975
136	0x3e00321f	0.1251912
137	0xbe329b2f	-0.1744201
138	0x3e594e4b	0.21221273
139	0xbbc54dfb	-0.006021259
140	0xbe8b69e5	-0.2722923
141	0x3dcf0166	0.101076886
142	0xbe635b1c	-0.22202724
143	0xbd82b99d	-0.06383059
144	0xbe59fd80	-0.21288109
145	0xbed95ac6	-0.42452067
146	0xbc18923e	-0.009312211
147	0x3d547858	0.05187258
148	0xbcfeee77	-0.031119568
149	0x3de8cd47	0.113672785
150	0xbe169042	-0.14703467
151	0xbcb4bf8b	-0.022063991
152	0xbddb6527	-0.10712653
153	0xbe046a43	-0.1293116
154	0xbe0745a2	-0.13210157
155	0x3d79d0cc	0.06099014
156	0xbd191a04	-0.037378326
157	0x3e0dda22	0.13852742
158	0xbdca00a9	-0.09863407
159	0xbdea0f21	-0.11428667
160	0xbce656aa	-0.028117497
161	0x3d760f01	0.060072903
162	0x3ed08bdd	0.40731707
163	0x3c6a0264	0.0142827965
164	0x3b1b907d	0.0023737245
165	0x3d1cdab3	0.038294505
166	0x3d94fe25	0.07275037
167	0xbe2d53e5	-0.16926534
168	0x3e703e3f	0.23461245
169	0xbbccae8f	-0.006246395
170	0x3db09e06	0.086238906
171	0xbd93be51	-0.07214034
172	0x3da62ce4	0.08114031
173	0xbe4d863a	-0.20070735
174	0xbedff3db	-0.43740734
175	0x3d540587	0.051763084
176	0xbf54548a	-0.82941496
177	0x3e7e00b9	0.24804963
178	0xbf0b6068	-0.5444398
179	0xbe47e62a	-0.19521394
180	0x3d6d54c3	0.057942163
181	0xbe1fe4ae	-0.15614578
182	0x3d181e8b	0.037138503
183	0xbdc51a66	-0.09624176
184	0x3e46ac7b	0.19401734
185	0xbd0cf6c8	-0.034415036
186	0xbe47d3ad	-0.19514342
187	0x3da39089	0.07986552
188	0xbdbd008f	-0.09228622
189	0xbe3e073c	-0.18557447
190	0x3e2efcc1	0.17088605
191	0xbe924fa6	-0.28576392
192	0xbea7d987	-0.32783148
193	0xbd0770d4	-0.033066586
194	0xbe43004f	-0.19043086
195	0xbe1dcceb	-0.15410201
196	0x3c92d8e6	0.01792569
197	0x3d327390	0.04356724
198	0xbcf6796d	-0.030087197
199	0xbea19c75	-0.3156468
200	0x3b87cb91	0.00414414
201	0x3ce2272d	0.027606571
202	0x3dd65860	0.10466075
203	0xbe67c742	-0.22634605
204	0x3d0a415c	0.033753738
205	0xbdf17e3f	-0.11791658
206	0xbdaf7e2f	-0.085689895
207	0xbbdf5dad	-0.006816587
208	0xbd3c8fc3	-0.04603554
209	0x3e00a5c5	0.12563236
210	0x3c2c7cb7	0.010527781
211	0xbda55ca7	-0.08074313
212	0x3dfa2fbc	0.12216136
213	0xbe128480	-0.14308357
214	0xbe9d6f9b	-0.3074921
215	0x3e20ba50	0.15696073
216	0xbe935050	-0.2877221
217	0xbb6be4d0	-0.0035994537
218	0x3d81191e	0.06303619
219	0xbe3bef1f	-0.18352936
220	0x3cc31e4e	0.023818161
221	0x3d9f3adc	0.077748984
222	0xbead7d4d	-0.3388466
223	0x3d56d32e	0.05244749
224	0x3d1aa805	0.037757892
225	0x3bf2bfe8	0.007408131
226	0x3e94b862	0.29046923
227	0xbdde58d2	-0.10856785
228	0xbd3cc04a	-0.04608182
229	0xbe205080	-0.15655708
230	0x3cd07324	0.025445528
231	0xbe1b4f63	-0.15167002
232	0x3cf813e1	0.030282917
233	0xbecd498e	-0.4009518
234	0xbdfcacad	-0.12337623
235	0x3eabfafe	0.3358993
236	0xbe7e7b8b	-0.24851815
237	0xbe9cbfdf	-0.30615136
238	0xbe2d1a2b	-0.16904514
239	0xbdc88ce4	-0.09792498
240	0xbd7387fe	-0.059455864
241	0x3d01b9c7	0.03167131
242	0xbbe5b391	-0.0070099314
243	0x3d772cdf	0.060345527
244	0x3912e435	0.00014008659
245	0xbc65dd2f	-0.014029785
246	0xbe913827	-0.28363153
247	0xbdda196d	-0.10649381
248	0x3ded0728	0.115736306
249	0x3e40154a	0.18758121
250	0xbe985ff6	-0.29760712
251	0xbe29ce13	-0.16582517
252	0xbc92808a	-0.017883558
253	0x3d5f6902	0.054543503
254	0x3e26f1c4	0.16303164
255	0x3e0591d5	0.13043912

fully_connected_layers.2.bias f4 [128]
0	0x3e0930dc	0.13397545
1	0xbd562d92	-0.052289553
2	0xbd87e931	-0.066362746
3	0x3e0fbfae	0.14037964
4	0x3ca962ad	0.020676935
5	0xbdce096a	-0.10060389
6	0xbc83ef46	-0.016105305
7	0x3e169394	0.14704734
8	0xbdf6c973	-0.12050142
9	0xbcdde384	-0.027086027
10	0x3cebc730	0.028781503
11	0x3e44ef74	0.19231969
12	0x3d883c42	0.06652118
13	0x3c961bb7	0.018323762
14	0x3e614b00	0.22001266
15	0x3db9944b	0.09061488
16	0x3cb013f2	0.021493886
17	0xbca3663f	-0.019946216
18	0xbd1097d7	-0.035301056
19	0xbd0034d2	-0.031300373
20	0x3e83c484	0.25735867
21	0x3d908b91	0.0705787
22	0xbd2500ab	-0.04028384
23	0x3de28f2e	0.110624656
24	0x3dd16c78	0.10225767
25	0x3d86b57d	0.06577585
26	0x3d2be90e	0.041970305
27	0x3defd869	0.11711199
28	0xbd58f1f9	-0.052965138
29	0x3dc7ed7a	0.09762092
30	0x3cae0a3e	0.021245118
31	0xbd4fc6fb	-0.050726872
32	0xbc96740e	-0.018365886
33	0xbd427b74	-0.047481015
34	0x3c69b355	0.0142639475
35	0x3c87f4bb	0.016596189
36	0xbd41650d	-0.04721551
37	0x3e5854c6	0.21126089
38	0xbdfbe0ee	-0.12298761
39	0xbd5c9661	-0.05385435
40	0xbd8d9c49	-0.06914575
41	0x3df93e0a	0.12170036
42	0x3db8c5dd	0.090221144
43	0x3d3bc889	0.045845542
44	0x3994e830	0.00028401753
45	0xbd36a80d	-0.04459386
46	0x3cea7827	0.028621746
47	0x3dac6aa9	0.08418781
48	0x3c8d9c33	0.017286396
49	0xbda73e56	-0.081661865
50	0xbe0e6aad	-0.13907881
51	0xbcecf57b	-0.028925648
52	0xbd2b8647	-0.041876104
53	0x3b2e4b38	0.0026595127
54	0x3e3ea1bd	0.18616386
55	0x3d864cd5	0.06557623
56	0xbdf0313a	-0.11728139
57	0xbb295efa	-0.0025843964
58	0x3c842a68	0.016133502
59	0x3ca5d015	0.020240823
60	0xbdd5c76d	-0.10438428
61	0x3d8f6782	0.070021644
62	0xbdc69d1f	-0.09697937
63	0x3d49f2ed	0.049303938
64	0x3d5b057c	0.053472027
65	0x3dcbf78b	0.099593244
66	0x3ea98448	0.33108735
67	0x3d36decb	0.044646066
68	0xbdd7b341	-0.10532237
69	0x3d1f03d3	0.038822006
70	0x3ded624c	0.11591014
71	0xbcf41c86	-0.029798757
72	0x3d0ce5fe	0.034399025
73	0x3e1d07d3	0.15335016
74	0xbd7e3792	-0.062064715
75	0x3db29f4b	0.08721789
76	0xbd928d8d	-0.07155905
77	0x3e2c4a32	0.16825178
78	0x3d2736a6	0.0408236
79	0x3e67279b	0.22573702
80	0xbd50de0e	-0.050993018
81	0x3e12fad6	0.14353499
82	0x3cce21ee	0.025162663
83	0x3c67ccd7	0.014147959
84	0xbd9afb6c	-0.07567486
85	0xbbe0d1fd	-0.00686097
86	0xbd64e06a	-0.05587808
87	0x3e018399	0.12647857
88	0x3dd8cec9	0.10586316
89	0xbe013878	-0.12619197
90	0x3bf09253	0.007341662
91	0xbd53b63b	-0.05168746
92	0x3d958a5e	0.07301782
93	0x3cd42d08	0.025900379
94	0xb984e58d	-0.0002534803
95	0x3d043143	0.032273542
96	0xbc8cf373	-0.01720593
97	0x3c422ba7	0.011851228
98	0x3d432dc5	0.04765107
99	0x3c269bf6	0.01016902
100	0xbe385ff8	-0.18005359
101	0x3c338a7c	0.01095831
102	0xbd8b5d71	-0.06804932
103	0x3c1f7648	0.00973279
104	0x3d834bb4	0.064109236
105	0xbd5b6306	-0.053561233
106	0xbc1bef5c	-0.009517517
107	0xbe029a25	-0.12754114
108	0xbda135de	-0.078716025
109	0xbd5cec63	-0.053936373
110	0xbde3b154	-0.11117807
111	0xbde29914	-0.110643536
112	0xbc2d0a78	-0.010561578
113	0x3dd5f3ef	0.10446917
114	0x3c8db81f	0.01729971
115	0x3d3f8210	0.046754897
116	0xbc1a8e17	-0.009433291
117	0x3e4995d9	0.19686069
118	0xbb282fae	-0.0025663185
119	0xbe0fb7f5	-0.14035018
120	0x3c582f8e	0.013194932
121	0xbd90b7c1	-0.07066298
122	0xbc752607	-0.01496268
123	0x3d47bdeb	0.048765104
124	0xbddcd195	-0.10782162
125	0x3bf507d7	0.007477741
126	0xbd5e2169	-0.05423108
127	0xbd8ad5ba	-0.06779046

fully_connected_layers.3.weight f4 [128, 165]
0	0xbe71e62c	-0.2362296
1	0x3b649bad	0.003488283
2	0x3e99e8d0	0.30060434
3	0xbedc1612	-0.42985588
4	0xbea5b5ba	-0.3236521
5	0xbe6055b2	-0.2190769
6	0xbe68d3ba	-0.22737017
7	0x3e80e94f	0.25178
8	0xbea4beef	-0.3217692
9	0xbf1b1532	-0.60579216
10	0xbda8f554	-0.082499176
11	0xbe48ea9b	-0.19620745
12	0x3de1dbe0	0.11028266
13	0xbe480ba5	-0.19535692
14	0xbd669687	-0.056295898
15	0xbe8f8e46	-0.28038234
16	0xbde90f3c	-0.11379859
17	0x3d4b0f38	0.04957506
18	0xbc2292aa	-0.009922663
19	0xbee85db1	-0.4538398
20	0x3e7c3bd8	0.24632204
21	0xbe9d90b8	-0.30774474
22	0xbe140657	-0.14455543
23	0xbe7d258c	-0.24721354
24	0xbe934dd1	-0.28770307
25	0xbe4bf306	-0.19916925
26	0xbd94346a	-0.0723656
27	0x3e34093c	0.17581648
28	0xbec269df	-0.37971398
29	0xbf33edce	-0.70284736
30	0xbe0d1fcd	-0.13781662
31	0xbeab3bdb	-0.33444104
32	0x3d361d13	0.04446132
33	0xbe0ce80c	-0.13760394
34	0xbedb930e	-0.4288563
35	0xbdb7a613	-0.08967223
36	0xbdcbf3ab	-0.09958585
37	0x3d8e7c55	0.06957308
38	0x3d645547	0.05574539
39	0x3e830338	0.25588393
40	0x3e350b52	0.176801
41	0xbd87375f	-0.06602358
42	0x3ebdafd3	0.37048206
43	0xbdd18a63	-0.10231473
44	0x3e9d3f56	0.30712384
45	0xbe545450	-0.20735288
46	0x3cf67cc4	0.03008879
47	0xbe472af9	-0.19449987
48	0xbe7bb5e7	-0.24581109
49	0xbe833321	-0.25624946
50	0xbe0bf780	-0.13668633
51	0xbd2a0523	-0.041508805
52	0xbcebeea5	-0.028800318
53	0xbe1cc5c9	-0.15309824
54	0x3e23506d	0.15948649
55	0x3e55a4a2	0.20863584
56	0x3dd8691e	0.105669245
57	0x3e26eccd	0.1630127
58	0x3e1b6256	0.15174231
59	0xbc6d76fd	-0.014493701
60	0xbde3c90f	-0.11122333
61	0x3e80a60a	0.25126678
62	0xbea41bc7	-0.32052442
63	0x3e32d526	0.17464122
64	0x3d244ecc	0.04011421
65	0xbe20631f	-0.15662812
66	0xbd231d6a	-0.039822973
67	0x3d900e00	0.0703392
68	0x3c50808b	0.0127259595
69	0x3cedb5a1	0.029017271
70	0x3e51e1b8	0.20496261
71	0x3e73a06f	0.2379167
72	0xbc2e5ed9	-0.010642731
73	0x3e4ae196	0.19812617
74	0x3e3c840d	0.18409748
75	0x3e183285	0.14863022
76	0xbd7da369	-0.06192342
77	0x3eb67867	0.35638735
78	0xbde02557	-0.10944622
79	0x3dc54753	0.09632745
80	0xbc97cacd	-0.01852932
81	0x3e41257d	0.18861957
82	0x3e2a5b1c	0.16636318
83	0x3e289582	0.16463283
84	0x3e932069	0.28735664
85	0x3e7093eb	0.23493926
86	0x3dfcd51b	0.12345334
87	0xbd0130e0	-0.03154075
88	0x3baa14e3	0.005190478
89	0xbeae6b8c	-0.34066427
90	0x3e841603	0.25798044
91	0xbcbe1b45	-0.023206363
92	0x3def4986	0.11683945
93	0x3e70be3b	0.23510067
94	0x3d5ddc7a	0.05416534
95	0xbda496b2	-0.08036555
96	0xbcebfafd	-0.028806204
97	0xbea95e52	-0.33079773
98	0xbbe13c27	-0.006873626
99	0xbe2c4e70	-0.16826797
100	0x3ea56a60	0.3230772
101	0xbd30a765	-0.04312839
102	0xbcfef340	-0.03112185
103	0xbdbd37c8	-0.09239155
104	0x3e928371	0.28615907
105	0xbde9f4e0	-0.11423659
106	0x3e519910	0.20468545
107	0xbd12712d	-0.035752464
108	0x3ea53e32	0.32274014
109	0xbe109df7	-0.14122759
110	0xbd898a93	-0.06715884
111	0x3e89e7a7	0.2693455
112	0x3e8a2aea	0.26985866
113	0x3ded01d2	0.11572613
114	0xbd05bee4	-0.03265275
115	0x3e512b0f	0.20426582
116	0x3d82c5e6	0.063854024
117	0x3eafb22c	0.34315622
118	0xbeb5d06f	-0.35510585
119	0xbd392cf8	-0.0452089
120	0x3ddb6383	0.1071234
121	0xbe213fa3	-0.15746932
122	0x3e7c1c75	0.2462023
123	0xbdbbb734	-0.091658026
124	0xbe89984c	-0.26874006
125	0x3ee283d5	0.44241205
126	0xbe814366	-0.25246733
127	0x3e49a5b9	0.19692124
128	0x3e7e2a20	0.24820757
129	0x3e65ef3c	0.22454542
130	0xbd95b89b	-0.07310601
131	0xbd4394b2	-0.04774923
132	0xbe5500fd	-0.20801158
133	0x3e4bc131	0.19897915
134	0x3bab1b84	0.005221786
135	0x3cb4c30b	0.02206566
136	0x3e06df55	0.13171132
137	0x3e195a3d	0.1497583
138	0x3e975e75	0.29564252
139	0xbd20fdc4	-0.03930451
140	0x3d90ceba	0.0707068
141	0x3d6875d6	0.056753002
142	0xbd93d4d2	-0.07218327
143	0x3e1b7469	0.15181126
144	0xbee02454	-0.43777716
145	0x3e70ceb8	0.23516357
146	0x3e266b06	0.16251764
147	0x3eb85073	0.35998878
148	0x3931a7d9	0.00016942564
149	0x3dc43133	0.095796965
150	0xbe1ba0c1	-0.15198041
151	0x3eb43a2f	0.3520064
152	0xbe0d652b	-0.13808124
153	0x3e469636	0.19393238
154	0xbd47ef4c	-0.048812196
155	0xbdb10a16	-0.08644502
156	0xbe000786	-0.1250287
157	0xbd73baf4	-0.059504464
158	0x3ea826f8	0.3284223
159	0x3eaa2207	0.33229086
160	0xbe849684	-0.25896084
161	0xbeb1d683	-0.34733972
162	0x3d8a7c4d	0.0676199
163	0xbbdccfd8	-0.006738644
164	0xbeeb943b	-0.46011528
165	0x3d8780c5	0.06616358
166	0x3d8db90b	0.0692006
167	0x3c3d3678	0.011548631
168	0x3d203d63	0.039121043
169	0x3e04bc15	0.12962373
170	0xbdab507d	-0.08364961
171	0x3cb0e2bf	0.021592496
172	0x3c3d054a	0.011536906
173	0x3e056f07	0.13030635
174	0xbdf19405	-0.117958106
175	0x3dc35a60	0.09538722
176	0xbeb4c2f0	-0.35304976
177	0x3d4746da	0.048651554
178	0x3dd3cee4	0.10342196
179	0xbd8eb656	-0.069683716
180	0x3e432d7b	0.19060318
181	0xbe0466a6	-0.12929782
182	0x3ea0b574	0.31388438
183	0xbe6872e6	-0.2270008
184	0xbe524af0	-0.20536399
185	0x3e76ce8c	0.24102229
186	0xbd34ffc0	-0.044189215
187	0x3e163bdf	0.14671277
188	0xbd8bd575	-0.06827823
189	0xbee06c8b	-0.43832812
190	0x3e686cc9	0.22697748
191	0x3e4a5bb0	0.19761539
192	0xbcca746a	-0.024713714
193	0xbc5ecb67	-0.0135983
194	0x3cd1c10d	0.02560475
195	0x3dcb6899	0.0993206
196	0xbce81ceb	-0.028334102
197	0x3e1dceaa	0.15410867
198	0xbd18e6c0	-0.037329435
199	0xbea53115	-0.3226401
200	0xbddd3f1d	-0.108030535
201	0xbd41906c	-0.047256872
202	0x3d828303	0.06372645
203	0xbe79a812	-0.2438052
204	0xbc8ec605	-0.017428407
205	0x3e1a6a57	0.15079628
206	0x3d91f9e0	0.07127738
207	0xbe3a4f0e	-0.1819422
208	0x3ce0fd62	0.027464572
209	0x3e465fc7	0.19372474
210	0x3eb3da4c	0.35127485
211	0x3ea680a0	0.32520008
212	0xbb9a10da	-0.004701716
213	0xbe08aac7	-0.13346396
214	0xbe33b030	-0.17547679
215	0xbe8ce4ca	-0.27518302
216	0x3db9e184	0.09076217
217	0x3e7a18a8	0.24423468
218	0x3e8b7865	0.2724029
219	0x3d23fa14	0.040033415
220	0x3decfd55	0.11571757
221	0x3d5cb3ea	0.053882517
222	0x3d8ae9ad	0.06782851
223	0x3e385912	0.18002728
224	0xbdb64687	-0.08900171
225	0xbe555d18	-0.20836294
226	0x3e44029b	0.19141619
227	0x3e5e39c3	0.21701722
228	0xbf05b023	-0.5222189
229	0x3dff54dd	0.12467358
230	0xbed7c56e	-0.42142814
231	0x3db92bf9	0.0904159
232	0xbd9d167c	-0.07670304
233	0x3eaf6c1c	0.34262168
234	0xbe1405e0	-0.14455366
235	0x3df99bc8	0.12187916
236	0x3ebcc1b9	0.3686655
237	0x3cf47397	0.029840274
238	0xbe9bc47c	-0.30423343
239	0xbd8a2d58	-0.0674693
240	0xbf227aa5	-0.6346839
241	0x3e242605	0.16030128
242	0xbcd3cedc	-0.025855474
243	0xbdc4325f	-0.0957992
244	0xbbd441d0	-0.006477572
245	0xbd9ac705	-0.07557491
246	0xbdbc7aa3	-0.092030786
247	0x3e46d932	0.19418791
248	0x3e101b9b	0.1407303
249	0xbc5cf5c9	-0.013486334
250	0xbcf4b413	-0.029871022
251	0x3e423509	0.18965544
252	0xbd9a8b28	-0.07546073
253	0x3cc11a50	0.023572117
254	0xbcf30b43	-0.029668456
255	0xbe831d7f	-0.2560844

fully_connected_layers.3.bias f4 [128]
0	0x3d964dd9	0.07339067
1	0x3dcc0bf0	0.099632144
2	0x3dd86808	0.105667174
3	0x3f2583c3	0.6465418
4	0x3e8778a8	0.2645924
5	0x3e687877	0.22702204
6	0x3f119923	0.56874293
7	0x3da13a91	0.07872499
8	0x3cbe1ba0	0.023206532
9	0x3ef4f0fc	0.47840106
10	0x3e0b40c5	0.13598926
11	0x3e9cdd11	0.3063741
12	0xbc632ef5	-0.013866176
13	0x3d88036b	0.06641277
14	0xbe380bec	-0.17973298
15	0xbcde70a7	-0.027153326
16	0xbcac876c	-0.021060668
17	0x3e0da363	0.13831858
18	0x3d106b5f	0.035258647
19	0xbd234a99	-0.039866064
20	0x3d84aef6	0.06478684
21	0xbd827dbf	-0.063716404
22	0x3e057a3a	0.13034907
23	0x3df44b42	0.11928417
24	0x3e6bd469	0.23030247
25	0x3b2a8b27	0.0026022883
26	0x3e08e2d6	0.13367781
27	0xbd106f3c	-0.03526233
28	0x3d4fd91b	0.050744157
29	0x3e8f4032	0.27978665
30	0x3ecba585	0.3977472
31	0x3e03b743	0.12862878
32	0x3ebeaaee	0.37239784
33	0x3d7aab1d	0.061198343
34	0xbda074fa	-0.078348115
35	0x3ddd62d0	0.108098626
36	0x3e18d3d4	0.14924556
37	0x3ef5f453	0.48037967
38	0xbd1ce086	-0.03830006
39	0xbd19ec9d	-0.037579168
40	0xbc3f1847	-0.011663503
41	0xbd670a56	-0.05640634
42	0x3aa7f474	0.0012813942
43	0x3d8ccff8	0.068756044
44	0x3f10f39c	0.5662172
45	0x3d90ee1b	0.07076665
46	0x3e646a07	0.22306071
47	0xbddefe6b	-0.1088837
48	0x3d998f0e	0.07497989
49	0x3dee646e	0.11640249
50	0x3d543485	0.0518079
51	0x3d988188	0.07446581
52	0x3f0063f9	0.50152546
53	0x3d7ca116	0.06167706
54	0x3da90e3b	0.08254667
55	0x3e8bb542	0.27286726
56	0xbbdff68d	-0.006834811
57	0x3e247e30	0.16063762
58	0xbe140748	-0.14455903
59	0x3e8996c2	0.26872832
60	0x3dab08a5	0.08351258
61	0x3f0e7e63	0.556616
62	0x3e31ac0a	0.17350784
63	0xbe019e9b	-0.1265816
64	0x3e2398bf	0.15976237
65	0xba9a0c75	-0.001175298
66	0x3e06ceb4	0.13164788
67	0x3dc38d84	0.09548476
68	0xbd8f2951	-0.06990302
69	0x3d7caece	0.061690144
70	0x3b9b3501	0.004736543
71	0x3d24516f	0.040116724
72	0x3e0faaea	0.14030042
73	0x3e0ec37e	0.13941762
74	0xbe2c58a4	-0.16830689
75	0x3ece4b5f	0.4029188
76	0x3eaac941	0.3335667
77	0x3e058a29	0.13040985
78	0x3e43293e	0.19058701
79	0xbb9738d9	-0.004614931
80	0xbd25d787	-0.040488746
81	0x3be3becb	0.0069502345
82	0xbdc65c1f	-0.096855395
83	0x3c6c0854	0.014406282
84	0x3e5cf2aa	0.21576944
85	0x3e542cfe	0.20720288
86	0x3e3a2567	0.1817833
87	0x3ee68392	0.45022255
88	0x3e5827bf	0.21108912
89	0x3dc8b0a6	0.09799318
90	0x3eec203f	0.46118352
91	0x3e2bee47	0.16790114
92	0xbd186c00	-0.03721237
93	0x3e1a3b08	0.15061581
94	0xbe04ddc8	-0.12975228
95	0x3f0e810f	0.5566568
96	0xbc3d273c	-0.011544999
97	0x3eb8bc0a	0.36080962
98	0x3e43f48c	0.19136256
99	0x3e64d1b5	0.22345622
100	0xbc8f59bd	-0.017498845
101	0x3f163301	0.58671576
102	0x3e170460	0.14747763
103	0x3e9de526	0.3083889
104	0x3db650f3	0.089021586
105	0xbd54e06a	-0.05197183
106	0x3db115df	0.0864675
107	0x3d93a2cd	0.07208786
108	0x3e0b4bc9	0.13603128
109	0xbcf5b7d0	-0.029994875
110	0x3ecc589f	0.39911363
111	0xbdb7b9c3	-0.08970978
112	0x3e347f68	0.17626727
113	0x3dba9133	0.09109726
114	0xbd8cffe7	-0.06884747
115	0x3d5c44b6	0.053776465
116	0x3e913fc0	0.2836895
117	0xbd04ef7f	-0.032454964
118	0x3e23c3bb	0.15992634
119	0x3de7666a	0.11298831
120	0x3d6c37eb	0.057670515
121	0x3a611556	0.0008586248
122	0x3d50c2b6	0.05096694
123	0x3d03b3ac	0.03215377
124	0xbe123cac	-0.14280957
125	0x3f04bb4f	0.5184831
126	0x3e538fc2	0.20660308
127	0x3d2dc348	0.042422563

fully_connected_layers.4.weight f4 [4, 165]
0	0x3e0acb8c	0.1355421
1	0x3dd2d4bc	0.10294482
2	0x3e8b83c0	0.27248955
3	0x3e0fb0dc	0.1403231
4	0x3ccae39f	0.024766741
5	0x3e5b581d	0.21420331
6	0x3e1d97e7	0.15389977
7	0x3e0d89a1	0.13822033
8	0x3e1465ef	0.1449201
9	0x3d9b87ee	0.07594286
10	0x3e809a79	0.25117853
11	0x3e135d38	0.14391029
12	0x3e4d7ad5	0.20066388
13	0x3e75a19c	0.2398743
14	0x3d89babb	0.06725069
15	0x3e8a93b3	0.2706581
16	0x3e25e6fb	0.16201393
17	0x3e13e48b	0.14442651
18	0x3e5af8b2	0.21383932
19	0x3df39cb1	0.11895121
20	0x3e789347	0.24274932
21	0x3e9f3fd7	0.31103393
22	0x3e4b4252	0.19849518
23	0x3e31723f	0.17328738
24	0x3cfcad6d	0.030844415
25	0x3e5e8403	0.21730046
26	0x3e992f75	0.2991902
27	0x3e582264	0.21106869
28	0x3e783640	0.24239445
29	0x3db3cd25	0.087793626
30	0x3ebff62f	0.3749251
31	0x3e4f5b37	0.2024964
32	0x3e13560c	0.14388293
33	0x3e78effe	0.243103
34	0x3cebe2b2	0.02879462
35	0x39b3dfa9	0.0003430818
36	0x3c007a7f	0.007841705
37	0xbf339323	-0.7014639
38	0x3ebaa284	0.36452115
39	0x3e33b2af	0.17548631
40	0x3e8b5e08	0.27220178
41	0x3e637b39	0.22214974
42	0x3e4d45ca	0.20046154
43	0x3e727732	0.23678282
44	0xbc110904	-0.008852247
45	0xbd596d96	-0.053083025
46	0x3e312b8c	0.17301768
47	0x3dcffb5c	0.10155365
48	0x3e40725f	0.18793629
49	0x3e08c028	0.13354552
50	0xbbbb2838	-0.0057115816
51	0xbe321595	-0.17391045
52	0xbe60f998	-0.21970212
53	0x3f04ca08	0.51870775
54	0x3ddb2662	0.1070068
55	0x3e993c8e	0.29929012
56	0x3c84f08f	0.016227989
57	0x3ee0c302	0.4389878
58	0x3ec4ffc8	0.38476396
59	0x3eab430b	0.33449587
60	0x3eb6e047	0.35717985
61	0x3e56c2e4	0.20972782
62	0x3dc907af	0.09815919
63	0x3eb21747	0.34783384
64	0x3e3fb93a	0.18723002
65	0x3db6a4f2	0.089181796
66	0x3e44fb22	0.19236425
67	0x3e0662b6	0.13123593
68	0xbec2b003	-0.3802491
69	0x3e47260a	0.19448105
70	0xbed92967	-0.424144
71	0xbe0657f3	-0.13119487
72	0x3e89ade3	0.26890478
73	0xbe295ad0	-0.16538548
74	0x3e8571aa	0.2606328
75	0xbf032c32	-0.5123931
76	0xbbfb0e41	-0.0076616113
77	0xbea51dc2	-0.32249266
78	0xbe2468b5	-0.16055568
79	0x3d58b4bd	0.05290674
80	0x3ea8b3f6	0.329498
81	0x3e4f49e5	0.20243032
82	0xbdcc32cb	-0.099706255
83	0x3e1ffacf	0.1562302
84	0xbc1f9269	-0.009739497
85	0xbe554453	-0.20826845
86	0x3cd1ec87	0.02562548
87	0xbe87866a	-0.26469737
88	0x3e1235b5	0.142783
89	0x3e37fe9e	0.17968222
90	0x3e0d1303	0.13776784
91	0x3d17b622	0.03703893
92	0x3e1c0c39	0.15239038
93	0xbd9e4659	-0.077282615
94	0x3e8aa8b5	0.27081838
95	0xbe80bcc8	-0.2514403
96	0x3de97bc0	0.114005566
97	0x3ef84c30	0.48495626
98	0x3e9ee375	0.3103291
99	0x3eb0a138	0.34498
100	0xbd3e7ee1	-0.04650772
101	0x3ddc5f1b	0.107603274
102	0x3ef4233f	0.4768314
103	0xbf0cdb31	-0.5502196
104	0xbf142018	-0.5786147
105	0xbd8c021d	-0.068363406
106	0x3e445c4b	0.19175832
107	0xbebb28f4	-0.36554682
108	0xbf4dc47c	-0.80377936
109	0x3e821e2c	0.25413644
110	0x3e9ededa	0.31029397
111	0xbe6a6e06	-0.22893533
112	0x3e0b5178	0.13605297
113	0x3e4871d4	0.19574672
114	0x3e3f4090	0.18676972
115	0x3d135cb1	0.03597707
116	0x3eacf662	0.33781725
117	0xbd262bf6	-0.04056927
118	0x3e51f1e5	0.20502432
119	0xbe4e3324	-0.20136696
120	0x3e6659ef	0.22495244
121	0x3e2a2507	0.16615687
122	0x3e0a65ca	0.13515392
123	0x3dba6e76	0.091031
124	0x3dca2d36	0.098719046
125	0x3e6d4f08	0.2317468
126	0xbeeffed8	-0.46874118
127	0x3e4a09c8	0.19730294
128	0x3e1a6698	0.15078199
129	0xbb9d47ee	-0.0047998345
130	0x3e512b7b	0.20426743
131	0xbe944ac4	-0.28963292
132	0x3e5c1e8c	0.21496028
133	0xbe20fba8	-0.15720999
134	0x3e28c13f	0.16479968
135	0x3f008728	0.5020623
136	0x3f0a99f2	0.5414115
137	0x3eabbc85	0.33542266
138	0x3e9be592	0.30448586
139	0x3e434cd9	0.19072284
140	0x3e8306a1	0.25590995
141	0xbe85d451	-0.26138547
142	0xbd96b078	-0.073578775
143	0x3e628189	0.22119726
144	0xbdbc2188	-0.09186083
145	0x3e3866df	0.18007992
146	0xbe22a088	-0.1588155
147	0x3e5ab7b9	0.21359147
148	0x3db8f05c	0.0903022
149	0x3e283a0d	0.16428395
150	0x3e273ca3	0.16331725
151	0xbf0e1b36	-0.5551027
152	0x3e1136d1	0.14181067
153	0x3e0a240b	0.13490312
154	0xbe2e88c2	-0.17044356
155	0x3e78553c	0.24251264
156	0xbe92988f	-0.28632018
157	0x3d811ed7	0.0630471
158	0x3ee4afb7	0.4466531
159	0xbe9ee36b	-0.3103288
160	0xbd473a75	-0.048639733
161	0xbe64b57e	-0.22334859
162	0x3e7594de	0.2398257
163	0x3e0d935e	0.13825747
164	0xbdb7028f	-0.08936035
165	0x3e24d5b1	0.16097142
166	0x3e1b7500	0.1518135
167	0x3e16edbd	0.14739127
168	0x3e7c3d94	0.24632865
169	0x3e322b51	0.17399336
170	0x3e79a15c	0.2437796
171	0x3dc999d5	0.09843794
172	0x3e0b8fb7	0.13629042
173	0x3e5af37a	0.21381941
174	0x3d7c4f08	0.061598808
175	0x3e3f4ad8	0.18680894
176	0x3e8543b8	0.26028228
177	0x3de45f93	0.11151042
178	0x3e27db78	0.16392314
179	0x3e3b27ad	0.18276854
180	0x3e03ad21	0.12859012
181	0x3e74d557	0.23909508
182	0x3e32ce0b	0.17461412
183	0x3e8c488f	0.27399108
184	0x3e0cd289	0.13752188
185	0x3e62df23	0.22155432
186	0x3e609792	0.2193282
187	0x3d2ef0c9	0.0427101
188	0x3de8c6ba	0.11366029
189	0x3e3aa3ec	0.18226594
190	0x3e1032f5	0.14081939
191	0x3e4b384b	0.19845693
192	0x3c63750e	0.0138828885
193	0x3e06dc53	0.13169985
194	0xbda65ca1	-0.08123136
195	0x3e6afc79	0.22947873
196	0x3e56da4c	0.20981711
197	0x3d9404f0	0.07227504
198	0x3e545791	0.20736529
199	0x3da2b9cd	0.07945595
200	0xbbb3604b	-0.0054741255
201	0xbce76dd8	-0.02825062
202	0xbd9e310f	-0.07724201
203	0x3e4f8113	0.20264082
204	0x3ebebbc0	0.37252617
205	0x3e4d0b1e	0.20023772
206	0x3e310094	0.17285377
207	0x3d0983a8	0.033572823
208	0x3e517915	0.20456345
209	0x3dd70e32	0.105007544
210	0xbd5ba1b4	-0.05362101
211	0x3e8c9129	0.27454498
212	0x3e93052c	0.28714883
213	0x3e19d30a	0.15021911
214	0xbe028e28	-0.12749541
215	0x3e3857a0	0.18002176
216	0xbe3f0f44	-0.18658167
217	0xbe48de3b	-0.19616024
218	0x3ebcca45	0.3687307
219	0x3e8efbc9	0.27926472
220	0x3edc819d	0.43067637
221	0x3d52571c	0.051352605
222	0x3ec6ffd8	0.38867068
223	0xbefc4701	-0.49272922
224	0x3f2f2088	0.68409014
225	0x3e5da695	0.21645577
226	0xbdc4b54b	-0.096048914
227	0x3eee1436	0.46499795
228	0x3e9beed4	0.3045565
229	0x3ec72c90	0.38901186
230	0x3da1470f	0.078748815
231	0x3bf57551	0.007490792
232	0x3e524543	0.20534234
233	0xbd70ea30	-0.05881709
234	0x3e0acc86	0.13554582
235	0x3e466b1d	0.19376798
236	0x3d81d400	0.06339264
237	0xbdfbcea3	-0.12295272
238	0x3e3ad78d	0.18246289
239	0x3e67ddd8	0.2264322
240	0xbea5c340	-0.32375526
241	0x3c8391ee	0.016060796
242	0x3d3ec29a	0.046572305
243	0xbd4cf454	-0.050037697
244	0x3d5b2590	0.05350262
245	0x3f139647	0.5765118
246	0x3e8cc91e	0.2749719
247	0x3bfda83f	0.0077410038
248	0x3ce29fbf	0.027664063
249	0xbea85507	-0.3287737
250	0x3d3c60bc	0.04599069
251	0x3ea2429c	0.31691444
252	0xbf3d1cfc	-0.7387235
253	0x3ed1af4c	0.40954053
254	0x3e34ee2a	0.17668977
255	0xbe9feffb	-0.31237778

fully_connected_layers.4.bias f4 [4]
0	0x3eb7d622	0.35905558
1	0x3e5aa325	0.21351297
2	0x3eb44b34	0.35213625
3	0x3e892685	0.267872
